saved_model/embedding.pt (torch, 462763 bytes, 24 tensors)

weight f4 [64, 1, 3, 3]
00000000: 9196 42bf 53b7 86be 0c25 3abf 19b5 08bf
00000010: ee49 173e c9a5 1e3f d6a5 a13d 1c2d 5cbd
00000020: ba0c e1be 70b5 8abd c1ed 243f 868e 103f
00000030: 6ab4 49bf 55e7 81be 8123 72bd 6cd6 d53d
00000040: 616a 053f 3dbb 3ebe aaba abbe 4fb4 0cbe
00000050: a8fd 4bbf f9d8 3f3f 5417 94be 5d7f f1be
00000060: 06cf 3a3f 2f3b dbbe 9110 41bf 9298 14bf
00000070: 8dad 223f f621 f63e cea5 febe 5ffd fabe
00000080: c204 d6be 5b6d a1be 52b4 24bf 2360 a6bd
00000090: a285 113f 0277 63bd 6a48 0f3f db60 27bf
000000a0: ea1b 123d d589 40bf 0d26 103f 5268 893e
000000b0: 2889 3e3f fd0c 3fbe b32b 303d 7642 d9be
000000c0: 52e9 023f 136b 473f 2884 b2be 6412 30be
000000d0: d485 dbbd 8fd6 00be 4e4e 473f 327f 1dbf
000000e0: 11e5 7bbe 3f31 36bd a170 113f f98a 683d
000000f0: 3bc8 aabd 0d66 21bf 3d4f ce3e 5889 463f
00000100: 9224 e23e 0477 0e3e 5b74 a23e 61a0 b1bd
00000110: 85f7 c63e 7855 223f d60e 293f 47e4 563a
00000120: ffbb 213f 775d e43e 9f29 223e 1511 69bd
00000130: bea0 983e cc2a 023f 35b6 c8be be1c 4ebf
00000140: 6949 9f3e 5210 03be d51a 3c3f 2c38 143f
00000150: bcf3 f3bd e26f c0be 1589 f6be 466d 5e3e
00000160: cb09 013e 15bd 2b3f ba4a 133f 1008 92bd
00000170: 0ef4 b23e 4191 663e e3ae 1a3e c1d3 32bf
00000180: 4713 373f dfd6 393f fd6b a23e ddc8 ecbd
00000190: 6f5b e93e 1ae1 283f d434 3a3f 391a 093f
000001a0: 70b6 363d dcae 1abf 2978 c6be a0b5 273f
000001b0: 2901 72be ada0 7ebe 8f20 29bf a066 2abf
000001c0: f417 983e 5879 fe3e 18ce 343e ec77 2bbf
000001d0: 5c3b f3bd 125c 21bf 3478 0dbf 32fb 243f
000001e0: 46c5 a8bd f210 51be e920 a6bd 4c4e 5fbe
000001f0: 03f9 bd3e 6092 20bf 8773 e7bb bdf9 30bf
00000200: 22fc 7abe df4e f1be 9e39 e33d b354 923e
00000210: c62f 083f ca1b 15bf 4407 24bf 78c5 f03e
00000220: 2991 23bf 0846 acbe 05b6 4b3f 1c1c 42be
00000230: a41b 19bf ef1a 14bf 5e10 4e3e 75e4 393e
00000240: 77d5 f53d 62f2 ce3c e812 403e 1510 e23e
00000250: fe02 4f3e 2157 f9be 1a98 40bf 7221 1fbf
00000260: 481c b8be 8532 bb3e b5ac b9bd 7c50 043f
00000270: b682 1f3f 6317 033e 6bca 963e 6335 613e
00000280: 2e09 3fbf 9e10 b9be 761b e63e 0c50 253f
00000290: a0ae eebe b9ae 423e 81d5 67be 5365 e43e
000002a0: 3dc7 d23e 8c46 08bf ec82 923e 699a 283e
000002b0: 7185 b4be 6070 503e 10d5 0f3f be85 31be
000002c0: 26f7 20bf 5753 99bd daa9 cabe 1d32 003f
000002d0: 1ae4 fdbe baa1 f3bb 70b7 e73e 08a7 383f
000002e0: c4a9 373f d72e c23e 7d44 febd 843e 263f
000002f0: 2f24 6c3d b04b 7c3e 31cd bd3e 722d 0fbf
00000300: eef0 34bf 54cf 3a3f 005f bdbe 6326 ed3e
00000310: 8eae 513e e15b c0bd 8a3c 8c3c d87c 26be
00000320: 512f 49bf 753b 0dbf 1e61 d0be 275e 803d
00000330: 707d 51bd 5a49 41bf 5b0c 393f 0819 ffbb
00000340: fea6 363f ab0c c43e 65cf 47be 9e31 3a3e
00000350: 70c2 fc3e c856 453f 827d ae3e 4958 22bf
00000360: 1957 c93e a6d6 eebe 8506 30bf ce02 a9be
00000370: 83a9 8dbc a111 41bf 4049 213f a172 56be
00000380: 737d 3dbf 04ec c5be 3a2e 1ebe 54bd ffbe
00000390: 49da 403f b609 2a3f b114 373f 6b49 7c3e
000003a0: f287 203f 56b1 7e3c 4c9a b03e 5fd4 22be
000003b0: 3a60 4d3f f987 803e ba4f 413f 0784 60be
000003c0: b085 1e3f 8070 083c 41e7 073e b3a7 f2be
000003d0: a0f7 1c3e 858f 1dbf ca5f 593e 4f0b 1cbf
000003e0: 3b56 2f3f 8342 02be ac3f fbbd 93ee 49bf
000003f0: 73a4 ecbe 9123 89be ec44 2c3e 3290 063d
-0.76010996 -0.2631174 -0.7271278 -0.53401333 0.14774296 0.6197172 0.07892959 -0.053753957
-0.43955022 -0.06772888 0.64425284 0.56467474 -0.78790915 -0.25371805 -0.05911589 0.10441288
0.52115446 -0.18626113 -0.3354085 -0.13740657 -0.79683924 0.7494045 -0.28924048 -0.47167483
0.7297214 -0.4281859 -0.75415903 -0.58045304 0.6354607 0.48072785 -0.49735874 -0.49021432
-0.41800505 -0.31528744 -0.64337647 -0.081238054 0.5684453 -0.055533417 0.5596987 -0.65382165
0.035671152 -0.75210315 0.5630806 0.26837403 0.74428034 -0.18657298 0.043010425 -0.42433518
0.5113727 0.7789776 -0.34866452 -0.17194515 -0.10718885 -0.12581848 0.7785386 -0.6152221
-0.245991 -0.04448056 0.56812483 0.05677316 -0.08338972 -0.6304634 0.4029483 0.7755332
0.44168526 0.13912588 0.31729397 -0.08673168 0.38860717 0.63411665 0.6603826 0.0008197468
0.63177484 0.44602558 0.1583619 -0.056901056 0.29810137 0.5084655 -0.39201513 -0.8051261
0.31110695 -0.12799194 0.7347844 0.5789821 -0.11911723 -0.3758536 -0.4815146 0.21721372
0.12601392 0.6708539 0.575359 -0.07130444 0.34951824 0.22516347 0.15105776 -0.6985436
0.7151379 0.7259349 0.31723014 -0.11561749 0.4557757 0.6596848 0.7273686 0.5355564
0.04460758 -0.60423064 -0.3876355 0.6551151 -0.23633255 -0.2486598 -0.66065305 -0.66562843
0.29705775 0.49701953 0.17656744 -0.6697986 -0.11876556 -0.63031113 -0.5526154 0.64445794
-0.08240752 -0.2041662 -0.08111746 -0.21807212 0.37104043 -0.6272335 -0.0070633325 -0.6913107
-0.24510244 -0.47130486 0.11094974 0.28580245 0.53197896 -0.5824553 -0.64073586 0.47025657
-0.6389337 -0.3364718 0.79574615 -0.18956035 -0.598078 -0.578536 0.20123431 0.18153556
0.12003606 0.025262062 0.18757212 0.44152895 0.20215985 -0.48699287 -0.7523209 -0.6216041
-0.35959077 0.3656198 -0.090661444 0.5168531 0.62308824 0.1280189 0.29451308 0.21993022
-0.7462338 -0.3614549 0.44942826 0.64575267 -0.46617603 0.19011964 -0.22640039 0.44608554
0.41167632 -0.53232646 0.2861551 0.16465153 -0.35258058 0.20355368 0.5618448 -0.17336175
-0.6287712 -0.07486599 -0.3958271 0.50076467 -0.4958809 -0.007435051 0.4525714 0.7212987
0.71743417 0.3792636 -0.12415407 0.6493914 0.057651695 0.24638247 0.3707061 -0.5592872
-0.7068013 0.7297261 -0.36986542 0.4631835 0.20476744 -0.093925245 0.017118711 -0.16258562
-0.78587824 -0.5516885 -0.40699095 0.06267958 -0.051145017 -0.7550255 0.7228448 -0.0077849664
0.7134856 0.38290915 -0.19512708 0.1818299 0.49367094 0.7708554 0.3408013 -0.6341596
0.39324263 -0.4664814 -0.6875995 -0.33009952 -0.017292744 -0.75417525 0.63002396 -0.20942165
-0.74019545 -0.38656628 -0.15447322 -0.49949133 0.75333077 0.6642107 0.7151595 0.24637382
0.62707436 0.01554521 0.3449272 -0.15901326 0.80224955 0.2510374 0.7551228 -0.21925364
0.6192274 0.008327603 0.1327181 -0.4739357 0.15328836 -0.6154712 0.21227947 -0.60954756
0.6849095 -0.12720685 -0.12268004 -0.7887966 -0.46219215 -0.26784948 0.16823167 0.03285236

bias f4 [64]
00000000: 0000 0000 0000 0000 0000 0000 0000 0000
00000010: 0000 0000 0000 0000 0000 0000 0000 0000
00000020: 0000 0000 0000 0000 0000 0000 0000 0000
00000030: 0000 0000 0000 0000 0000 0000 0000 0000
00000040: 0000 0000 0000 0000 0000 0000 0000 0000
00000050: 0000 0000 0000 0000 0000 0000 0000 0000
00000060: 0000 0000 0000 0000 0000 0000 0000 0000
00000070: 0000 0000 0000 0000 0000 0000 0000 0000
00000080: 0000 0000 0000 0000 0000 0000 0000 0000
00000090: 0000 0000 0000 0000 0000 0000 0000 0000
000000a0: 0000 0000 0000 0000 0000 0000 0000 0000
000000b0: 0000 0000 0000 0000 0000 0000 0000 0000
000000c0: 0000 0000 0000 0000 0000 0000 0000 0000
000000d0: 0000 0000 0000 0000 0000 0000 0000 0000
000000e0: 0000 0000 0000 0000 0000 0000 0000 0000
000000f0: 0000 0000 0000 0000 0000 0000 0000 0000
0.0 0.0 0.0 0.0 0.0 0.0 0.0 0.0
0.0 0.0 0.0 0.0 0.0 0.0 0.0 0.0
0.0 0.0 0.0 0.0 0.0 0.0 0.0 0.0
0.0 0.0 0.0 0.0 0.0 0.0 0.0 0.0
0.0 0.0 0.0 0.0 0.0 0.0 0.0 0.0
0.0 0.0 0.0 0.0 0.0 0.0 0.0 0.0
0.0 0.0 0.0 0.0 0.0 0.0 0.0 0.0
0.0 0.0 0.0 0.0 0.0 0.0 0.0 0.0

weight f4 [64]
00000000: 0000 803f 0000 803f 0000 803f 0000 803f
00000010: 0000 803f 0000 803f 0000 803f 0000 803f
00000020: 0000 803f 0000 803f 0000 803f 0000 803f
00000030: 0000 803f 0000 803f 0000 803f 0000 803f
00000040: 0000 803f 0000 803f 0000 803f 0000 803f
00000050: 0000 803f 0000 803f 0000 803f 0000 803f
00000060: 0000 803f 0000 803f 0000 803f 0000 803f
00000070: 0000 803f 0000 803f 0000 803f 0000 803f
00000080: 0000 803f 0000 803f 0000 803f 0000 803f
00000090: 0000 803f 0000 803f 0000 803f 0000 803f
000000a0: 0000 803f 0000 803f 0000 803f 0000 803f
000000b0: 0000 803f 0000 803f 0000 803f 0000 803f
000000c0: 0000 803f 0000 803f 0000 803f 0000 803f
000000d0: 0000 803f 0000 803f 0000 803f 0000 803f
000000e0: 0000 803f 0000 803f 0000 803f 0000 803f
000000f0: 0000 803f 0000 803f 0000 803f 0000 803f
1.0 1.0 1.0 1.0 1.0 1.0 1.0 1.0
1.0 1.0 1.0 1.0 1.0 1.0 1.0 1.0
1.0 1.0 1.0 1.0 1.0 1.0 1.0 1.0
1.0 1.0 1.0 1.0 1.0 1.0 1.0 1.0
1.0 1.0 1.0 1.0 1.0 1.0 1.0 1.0
1.0 1.0 1.0 1.0 1.0 1.0 1.0 1.0
1.0 1.0 1.0 1.0 1.0 1.0 1.0 1.0
1.0 1.0 1.0 1.0 1.0 1.0 1.0 1.0

bias f4 [64]
00000000: 0000 0000 0000 0000 0000 0000 0000 0000
00000010: 0000 0000 0000 0000 0000 0000 0000 0000
00000020: 0000 0000 0000 0000 0000 0000 0000 0000
00000030: 0000 0000 0000 0000 0000 0000 0000 0000
00000040: 0000 0000 0000 0000 0000 0000 0000 0000
00000050: 0000 0000 0000 0000 0000 0000 0000 0000
00000060: 0000 0000 0000 0000 0000 0000 0000 0000
00000070: 0000 0000 0000 0000 0000 0000 0000 0000
00000080: 0000 0000 0000 0000 0000 0000 0000 0000
00000090: 0000 0000 0000 0000 0000 0000 0000 0000
000000a0: 0000 0000 0000 0000 0000 0000 0000 0000
000000b0: 0000 0000 0000 0000 0000 0000 0000 0000
000000c0: 0000 0000 0000 0000 0000 0000 0000 0000
000000d0: 0000 0000 0000 0000 0000 0000 0000 0000
000000e0: 0000 0000 0000 0000 0000 0000 0000 0000
000000f0: 0000 0000 0000 0000 0000 0000 0000 0000
0.0 0.0 0.0 0.0 0.0 0.0 0.0 0.0
0.0 0.0 0.0 0.0 0.0 0.0 0.0 0.0
0.0 0.0 0.0 0.0 0.0 0.0 0.0 0.0
0.0 0.0 0.0 0.0 0.0 0.0 0.0 0.0
0.0 0.0 0.0 0.0 0.0 0.0 0.0 0.0
0.0 0.0 0.0 0.0 0.0 0.0 0.0 0.0
0.0 0.0 0.0 0.0 0.0 0.0 0.0 0.0
0.0 0.0 0.0 0.0 0.0 0.0 0.0 0.0

running_mean f4 [64]
00000000: 79b3 37bf 780d 383e 86f1 22bf b017 30bf
00000010: 60f1 ec3e ffbc 2fbc af61 903d 4e64 993f
00000020: 0b19 d63e 401c e53e b0fe 543f 2ddd 3a3f
00000030: dac5 19bf 22a9 01bf 0e61 20bf b725 82be
00000040: da14 e0be fd2b b93e e9db e33e 1568 91bd
00000050: 9ba8 5a3f bb8f d03d 8dfb 34bf 7e14 413f
00000060: c648 4cbf edd9 353f 9309 6e3f 5d9a 1dbf
00000070: 874a 853b b318 31bf 8f19 fe3e e1e1 60be
00000080: 6ad9 a83e f0ac 04be 6d38 15bf d52f 94be
00000090: 59c1 c6bf 7a1a c33e eca7 d4be 913f 783e
000000a0: a66e 403e e803 80be 2d4c 17be 7724 0c3e
000000b0: 480d d13e 6288 4d3f 7478 4c3f d7b2 373f
000000c0: a8c9 2fbd 791a 14bf dc70 2fbe af6f 863f
000000d0: 53f4 643d ddbf 6a3f 45dc 7dbe 0e9c fb3d
000000e0: a5bc acbd 1583 813e ea66 63bc 379d 263e
000000f0: 3c04 033c 2622 b03d 646d 023f 5dad fb3d
-0.7175823 0.17973888 -0.63649786 -0.68786144 0.46277905 -0.0107262125 0.07049882 1.1983736
0.4181598 0.44748116 0.8320112 0.7299374 -0.6006752 -0.506487 -0.62648094 -0.254194
-0.43765908 0.36166373 0.44503716 -0.0709993 0.8541352 0.101836644 -0.70696336 0.75421894
-0.79798543 0.71035653 0.9298336 -0.61563665 0.0040677222 -0.69178313 0.49628875 -0.21961166
0.32978374 -0.12956595 -0.58289224 -0.28942743 -1.5527755 0.38106138 -0.41534364 0.24242999
0.18792209 -0.2500298 -0.14775153 0.13685785 0.40830445 0.8028623 0.79871297 0.7175726
-0.042916924 -0.57852894 -0.17132896 1.0502833 0.05589707 0.9169901 -0.24791057 0.122856244
-0.084344186 0.2529532 -0.013879517 0.1627091 0.007996615 0.08600263 0.50948167 0.12288926

running_var f4 [64]
00000000: 5871 3940 d859 823e 7479 2a40 8004 4040
00000010: b812 9e3f af40 743d 2842 7f3d 00c8 0341
00000020: 4d6c 903f a8b1 933f 25de 8240 ea41 4a40
00000030: 4f0c 0340 6f72 c13f 8b61 1240 151d f43e
00000040: e70a a93f 6c75 523f a59a 923f 3ca2 853d
00000050: 133a 8d40 449a 073e e3e4 3a40 7b51 5240
00000060: 6e7d 7d40 cdd0 5140 c48b 9e40 3b3f 0b40
00000070: 2941 db3d a127 3040 bb32 bf3f 5d43 b23e
00000080: d95b 4b3f 9402 5a3e e6dd 0040 0512 113f
00000090: 3d33 5e41 c6f5 983f 0027 8f3f 28e0 c43e
000000a0: 43c6 923e bb01 e93e 4ed4 5b3e 529b 5b3e
000000b0: 393c 803f 8e5b 7340 ad6a 7b40 744e 4540
000000c0: 2fc3 d73e 362e 0340 1937 993e 4af4 ce40
000000d0: bc33 c23e 7d09 9b40 1ad9 cd3e 8e7a 4e3e
000000e0: 30ff 763e c32b 133f eaa0 a93e c6fd 943e
000000f0: 6137 3d3e c404 5e3e 50e1 bb3f 5a84 503e
2.897543 0.2545917 2.663663 3.0002747 1.2349463 0.059632 0.06231895 8.236328
1.1283051 1.1538591 4.0896173 3.160273 2.0476263 1.5113047 2.2872036 0.47678438
1.3206452 0.8221042 1.1453444 0.065250844 4.413339 0.13242441 2.9202201 3.2862232
3.9607806 3.2783692 4.954561 2.1757343 0.10705788 2.7524188 1.4937357 0.3481702
0.79437023 0.21290046 2.0135436 0.5666812 13.887509 1.1950004 1.1183777 0.38452268
0.28666887 0.45509133 0.21467707 0.21445969 1.0018378 3.802463 3.928386 3.0829134
0.421411 2.0496955 0.2992485 6.4673204 0.37930095 4.844908 0.40204698 0.20163938
0.24120784 0.5748865 0.3313058 0.29099864 0.18478157 0.21681505 1.4678135 0.20362988

weight f4 [64, 64, 3, 3]
00000000: a74f f93c a5f9 873d 7bc8 c73d f77a 2cbc
00000010: 9e2e ed3c 8cb4 05bd 0ae9 623c 6557 9cbd
00000020: 3933 1bbd 3601 37bd a083 ae3d a99c b83b
00000030: 8618 083b 8469 9dbd 803c 0cbd e5f8 9e3d
00000040: 9e78 623d abf8 463d 5028 aebd dec6 a03d
00000050: 0b0a cdbd 3984 9bbd 0cc0 c2bd 9e2b d0bd
00000060: 2a5f 08bd 881c 92bd 06c7 163d f2ef b7bc
00000070: 61e9 a63d 506e 5c3d 91a5 25ba 4e57 7e3d
00000080: d72d 96bc 5ac6 98bd 6465 3e3d f37a c83d
00000090: 0db0 5d3d 8c1b 6cbd d38a 89bd cd8f 463d
000000a0: 5857 d9b9 d742 3abd 70b4 15bd d00f 853d
000000b0: dc61 86bd 2749 b63d 82fb 1b3d f2ba 6fbc
000000c0: abb4 ac3d f47f 543c 9cd0 143c bcff b93d
000000d0: e44a ccbd 03e2 b43d 1e2e a53d 3e34 9ebd
000000e0: 5215 9fbb 25f1 383d 8072 cb3d 0645 9a3d
000000f0: 060f 39bc 53d7 6ebd e133 7ebd e181 83bd
00000100: 8009 84bd cd34 1cbd 4d56 14bd cd67 30bd
00000110: fdee 413d 710f 95bd 40f1 bf3d 55e0 a0bd
00000120: df33 993d cc4c 613d 9768 b6bc 1ce5 473c
00000130: fc63 bc3d a450 843c 9750 37bd 82ee 32bd
00000140: c918 913d fe0f 02bd f462 99bb 09ff c6bc
00000150: aa18 b13c d2e4 9abd 9e9f cb3d 59a4 babd
00000160: 761b 34bd 570c be3d 1a77 c8bd 265d 31bd
00000170: 3a4b 84bd f2f4 a1bd cc1b 603c 8209 9a3d
00000180: 79e9 f4bc 8684 663d d5f6 58bd b314 bb3d
00000190: 478b 32bb 1e5e d0bd 9e6b 553c f7de ac3d
000001a0: 2836 b23c 3fe0 ccbd 5dbf a13d ec99 0dbd
000001b0: b9c4 b7bc c9be cebd a860 9f3d 64ba 86bd
000001c0: 37e1 86bd 4767 8fbd 434a 57bd 962c a9bd
000001d0: 67a5 493d 75ee c8bd e732 b7bd c48d 113d
000001e0: e890 b7bd a44d ccbd ed41 823c b921 993d
000001f0: fa82 7d3c b631 5dbd 46bb 283d 1494 c23d
00000200: 4edb 923d 71ab febc 026d ab3c c934 66bd
00000210: b090 c33c a3d5 983d 1345 433d 7654 bb3d
00000220: d19a 28bc 4420 563c 10d9 ac3c 3471 813d
00000230: 0346 87bd 8224 cb3d ff6c adbd 412c 4e3d
00000240: 5297 003d 0170 f1bc 094e 58bd 6645 933d
00000250: 2885 153b 8cbf 763d 88a9 ab3c 5946 88bb
00000260: ccf8 413d e7e6 32bd f6ce 11bb 7911 0b3d
00000270: 255b 6c3d a0e0 bbbc a3c2 9a3d 76a3 aa3d
00000280: cdfe 51bd 7bda b93b af5c bc3c 7d61 c6bd
00000290: 3723 e33a 6964 8dbd 2eee 8e3d 0bc2 413d
000002a0: ee21 89bd 51f1 aa3d 10c5 303d 2a58 6f3d
000002b0: 48e3 31bc 49d1 073b bd7d 09bc 24fa 8dbb
000002c0: d4ff 4a3d 1923 5bbd 3541 933d 895c 5ebd
000002d0: 58ea e13c 6bc8 14bd adc1 99bd 4ab2 173d
000002e0: b38d 4e3c bca5 9a3d 3cbf 8ab9 c2f7 7ebc
000002f0: d209 a5bb d098 9bbd 969f 89bd d80e 703d
00000300: 6a7c 5b3d 1573 98bd f062 7fbd 4b91 a63d
00000310: 5d8a 473d c80f fbbc 1efe 41bd dadc ac3d
00000320: bd77 583d ffb0 7cbd faad c0bd 7bbe d83c
00000330: cf7a c8bc b66c 24bd d6b0 cdbd 119a 913d
00000340: ad73 9bbd d26c 01bd f8de 9bbd 517b 76bd
00000350: 7bd7 a3bc 48d7 cdbd 1532 9bbd 4be1 35bd
00000360: af0c 113c 6493 d03d 6358 1b3c 5139 c6bd
00000370: 544f 7f3b 205c c1bd c129 98bc ea33 683d
00000380: b6a7 0abc bbce 903d c9e3 ca3d a8d2 3fbc
00000390: 25d9 9fbd f392 b53d 21ba b43d 75ab cbbd
000003a0: 1da0 5abd 2d32 523d 1128 06bd b884 84bc
000003b0: bf22 993d 22ea c6bd 0646 c83d 6675 ca3d
000003c0: bef4 37bd c30a e63c 02c3 1d3d ab23 9fbd
000003d0: 269e 3e3d ef47 9e3d 8d2c 5a3c b7ea c33d
000003e0: 7790 813d 0a5c 43bd 1f11 c93c b307 663d
000003f0: 7564 bf3d 40b7 8a3c 7579 f5bc 4f90 7dbd
0.030433489 0.06639413 0.097550355 -0.010527364 0.028952893 -0.032642886 0.013849506 -0.07633857
-0.037890647 -0.04467889 0.08521199 0.0056339097 0.002076657 -0.07686141 -0.034237385 0.077623166
0.05529081 0.048576992 -0.08503783 0.07850431 -0.10011681 -0.07593579 -0.09509286 -0.10164569
-0.03329388 -0.07134348 0.036810897 -0.022453282 0.08149982 0.05381614 -0.0006318922 0.06209498
-0.018332405 -0.074597076 0.046483412 0.09789076 0.054122973 -0.05764346 -0.06715932 0.048476983
-0.00041454541 -0.0454739 -0.03654903 0.064971566 -0.06561634 0.089006715 0.038081653 -0.014631974
0.08432897 0.0129699595 0.0090829395 0.090819806 -0.09975222 0.08832171 0.08065437 -0.07724808
-0.0048548365 0.04515185 0.099339485 0.075326964 -0.011295086 -0.058310818 -0.062061194 -0.06421257
-0.064471245 -0.038136292 -0.036215115 -0.043067742 0.047347058 -0.07278336 0.09372187 -0.07855288
0.07480597 0.05500488 -0.02226667 0.01220062 0.09198758 0.016151734 -0.04475459 -0.04368449
0.070848055 -0.031753533 -0.0046809856 -0.024291532 0.021618206 -0.07563175 0.09942554 -0.09113378
-0.0439715 0.092796974 -0.09788342 -0.043301724 -0.06459661 -0.07908048 0.013678502 0.07521345
-0.029896485 0.056278728 -0.052969772 0.091348074 -0.002724366 -0.101742014 0.013026146 0.08440965
0.02175434 -0.10003709 0.07897828 -0.03457062 -0.022432672 -0.10094983 0.077821076 -0.0657852
-0.06585925 -0.070021205 -0.052561056 -0.08260457 0.049230006 -0.09811107 -0.08945256 0.03553559
-0.089631855 -0.09975746 0.015900576 0.07477135 0.015473122 -0.054002486 0.041194223 0.095009
0.07170735 -0.031087609 0.020926002 -0.056202684 0.023872703 0.07462623 0.047673296 0.09146969
-0.010290817 0.013069216 0.021099597 0.0632042 -0.066051506 0.09919073 -0.08468055 0.050335173
0.03139431 -0.029472353 -0.052808795 0.07190971 0.0022814963 0.060241267 0.020954862 -0.0041587767
0.04735641 -0.043677237 -0.0022248602 0.03395221 0.05770411 -0.022934258 0.07556655 0.08331959
-0.051268388 0.005671797 0.022993414 -0.09686563 0.001732922 -0.06903917 0.06979023 0.047304194
-0.06695925 0.08346809 0.043156683 0.05843369 -0.010857411 0.002072411 -0.008391795 -0.0043327976
0.049560383 -0.05350027 0.07190172 -0.054287467 0.027577564 -0.036323946 -0.07507644 0.037035264
0.012607026 0.075511426 -0.00026463892 -0.015562 -0.005036571 -0.07597506 -0.06719892 0.058607906
0.053585447 -0.07443825 -0.062350214 0.08133181 0.048715938 -0.030647174 -0.047361486 0.084405616
0.052848566 -0.061692234 -0.094081834 0.026458016 -0.024472622 -0.040142737 -0.100434944 0.07109464
-0.07590423 -0.03159792 -0.07610887 -0.060176197 -0.02000021 -0.10050827 -0.07577912 -0.04440431
0.008853122 0.101843625 0.009481522 -0.09678901 0.0038957195 -0.094413996 -0.018574597 0.056690134
-0.008462837 0.07070681 0.09906728 -0.011707939 -0.07805089 0.08865919 0.08824564 -0.09944812
-0.053375352 0.051317383 -0.032753054 -0.016176566 0.074773304 -0.09712626 0.09778981 0.09885673
-0.04491114 0.028081303 0.038516052 -0.07770475 0.04653754 0.07728564 0.013316286 0.09566253
0.063263826 -0.047695197 0.024544297 0.056159686 0.093453325 0.016933084 -0.029965142 -0.0619052

bias f4 [64]
00000000: 0000 0000 0000 0000 0000 0000 0000 0000
00000010: 0000 0000 0000 0000 0000 0000 0000 0000
00000020: 0000 0000 0000 0000 0000 0000 0000 0000
00000030: 0000 0000 0000 0000 0000 0000 0000 0000
00000040: 0000 0000 0000 0000 0000 0000 0000 0000
00000050: 0000 0000 0000 0000 0000 0000 0000 0000
00000060: 0000 0000 0000 0000 0000 0000 0000 0000
00000070: 0000 0000 0000 0000 0000 0000 0000 0000
00000080: 0000 0000 0000 0000 0000 0000 0000 0000
00000090: 0000 0000 0000 0000 0000 0000 0000 0000
000000a0: 0000 0000 0000 0000 0000 0000 0000 0000
000000b0: 0000 0000 0000 0000 0000 0000 0000 0000
000000c0: 0000 0000 0000 0000 0000 0000 0000 0000
000000d0: 0000 0000 0000 0000 0000 0000 0000 0000
000000e0: 0000 0000 0000 0000 0000 0000 0000 0000
000000f0: 0000 0000 0000 0000 0000 0000 0000 0000
0.0 0.0 0.0 0.0 0.0 0.0 0.0 0.0
0.0 0.0 0.0 0.0 0.0 0.0 0.0 0.0
0.0 0.0 0.0 0.0 0.0 0.0 0.0 0.0
0.0 0.0 0.0 0.0 0.0 0.0 0.0 0.0
0.0 0.0 0.0 0.0 0.0 0.0 0.0 0.0
0.0 0.0 0.0 0.0 0.0 0.0 0.0 0.0
0.0 0.0 0.0 0.0 0.0 0.0 0.0 0.0
0.0 0.0 0.0 0.0 0.0 0.0 0.0 0.0

weight f4 [64]
00000000: 0000 803f 0000 803f 0000 803f 0000 803f
00000010: 0000 803f 0000 803f 0000 803f 0000 803f
00000020: 0000 803f 0000 803f 0000 803f 0000 803f
00000030: 0000 803f 0000 803f 0000 803f 0000 803f
00000040: 0000 803f 0000 803f 0000 803f 0000 803f
00000050: 0000 803f 0000 803f 0000 803f 0000 803f
00000060: 0000 803f 0000 803f 0000 803f 0000 803f
00000070: 0000 803f 0000 803f 0000 803f 0000 803f
00000080: 0000 803f 0000 803f 0000 803f 0000 803f
00000090: 0000 803f 0000 803f 0000 803f 0000 803f
000000a0: 0000 803f 0000 803f 0000 803f 0000 803f
000000b0: 0000 803f 0000 803f 0000 803f 0000 803f
000000c0: 0000 803f 0000 803f 0000 803f 0000 803f
000000d0: 0000 803f 0000 803f 0000 803f 0000 803f
000000e0: 0000 803f 0000 803f 0000 803f 0000 803f
000000f0: 0000 803f 0000 803f 0000 803f 0000 803f
1.0 1.0 1.0 1.0 1.0 1.0 1.0 1.0
1.0 1.0 1.0 1.0 1.0 1.0 1.0 1.0
1.0 1.0 1.0 1.0 1.0 1.0 1.0 1.0
1.0 1.0 1.0 1.0 1.0 1.0 1.0 1.0
1.0 1.0 1.0 1.0 1.0 1.0 1.0 1.0
1.0 1.0 1.0 1.0 1.0 1.0 1.0 1.0
1.0 1.0 1.0 1.0 1.0 1.0 1.0 1.0
1.0 1.0 1.0 1.0 1.0 1.0 1.0 1.0

bias f4 [64]
00000000: 0000 0000 0000 0000 0000 0000 0000 0000
00000010: 0000 0000 0000 0000 0000 0000 0000 0000
00000020: 0000 0000 0000 0000 0000 0000 0000 0000
00000030: 0000 0000 0000 0000 0000 0000 0000 0000
00000040: 0000 0000 0000 0000 0000 0000 0000 0000
00000050: 0000 0000 0000 0000 0000 0000 0000 0000
00000060: 0000 0000 0000 0000 0000 0000 0000 0000
00000070: 0000 0000 0000 0000 0000 0000 0000 0000
00000080: 0000 0000 0000 0000 0000 0000 0000 0000
00000090: 0000 0000 0000 0000 0000 0000 0000 0000
000000a0: 0000 0000 0000 0000 0000 0000 0000 0000
000000b0: 0000 0000 0000 0000 0000 0000 0000 0000
000000c0: 0000 0000 0000 0000 0000 0000 0000 0000
000000d0: 0000 0000 0000 0000 0000 0000 0000 0000
000000e0: 0000 0000 0000 0000 0000 0000 0000 0000
000000f0: 0000 0000 0000 0000 0000 0000 0000 0000
0.0 0.0 0.0 0.0 0.0 0.0 0.0 0.0
0.0 0.0 0.0 0.0 0.0 0.0 0.0 0.0
0.0 0.0 0.0 0.0 0.0 0.0 0.0 0.0
0.0 0.0 0.0 0.0 0.0 0.0 0.0 0.0
0.0 0.0 0.0 0.0 0.0 0.0 0.0 0.0
0.0 0.0 0.0 0.0 0.0 0.0 0.0 0.0
0.0 0.0 0.0 0.0 0.0 0.0 0.0 0.0
0.0 0.0 0.0 0.0 0.0 0.0 0.0 0.0

running_mean f4 [64]
00000000: cdb2 663f 4ba0 213f 0ddf 40be cd35 463f
00000010: 6013 003e a0d9 37bf 4a68 0cbf ab50 d13e
00000020: be47 d9bf 062e b5bf 7af1 873e 762e 2bbf
00000030: ae24 1dbe 8e37 debe 04f0 19bf fb23 633e
00000040: ac32 8e3d 994d 963f 8d77 6f3f 3351 803d
00000050: 6c39 00bf bd7c 9d3e f752 7dbe 3d66 ad3f
00000060: 2797 a3be ee2c fa3d 3ff7 203e 4471 4e3e
00000070: 341b acbe 2cc9 eb3e fefe b3bf 1412 973e
00000080: 50b0 3f3e 65d7 82bf 986a 103e 8398 353f
00000090: f539 b53e 336a 8fbd 01a1 943e 0ad6 83bf
000000a0: ee34 193f 5824 a73f fdba fb3d fd79 0d3e
000000b0: 48fb 633f 1a3e 383e 53ea 41bf 5ae8 983e
000000c0: 5da1 833d 4adc 05bf 3766 c4bd f8e8 6e3f
000000d0: b219 0d3f e2ca 87be 2b9a 31bd e1af 2d3f
000000e0: 1433 ca3e 854d a2b9 1d2d debe ccca 803f
000000f0: 6c25 d9bd b575 ddbf f8ce a53f 81f8 593f
0.9011658 0.6313521 -0.18835087 0.77425843 0.12507391 -0.71816444 -0.5484663 0.40881857
-1.6975019 -1.415467 0.2655142 -0.6686777 -0.15346023 -0.4340176 -0.6013186 0.22181694
0.06943259 1.1742431 0.93541795 0.062654875 -0.5008762 0.3075923 -0.2473868 1.3546826
-0.31951258 0.12215601 0.15719317 0.20160395 -0.33614504 0.4605192 -1.4062192 0.2950598
0.18719602 -1.0221983 0.14103162 0.7093584 0.3539578 -0.07002678 0.29029086 -1.0299695
0.5984639 1.3057966 0.122915246 0.13816066 0.890553 0.1799244 -0.75748175 0.2986477
0.06427262 -0.5228926 -0.095898084 0.9332423 0.5511733 -0.26521975 -0.043359917 0.67846495
0.39492095 -0.00030956804 -0.43393794 1.0061889 -0.10602841 -1.7301546 1.2953787 0.8514481

running_var f4 [64]
00000000: 8193 2e3f 9c8a e83e da49 d43e 1cb6 c23e
00000010: c705 723e 03c4 9d3f ab50 473f 61cc 0e3f
00000020: 60d5 8b3f 5023 0840 cc71 b03f 65ae fc3f
00000030: efd3 c33e 0cf4 bf3e b6a3 863f b9fe 523f
00000040: 5075 cb3e 8373 0b3f 5eca f43e 5a97 a73f
00000050: 5725 a33e 6739 d43f fcb1 2e3f 67d8 6d3f
00000060: a98f bb3f 97f0 0d3f b84f 123f fa41 cb3f
00000070: a393 283f 689b 083f 7aef a83f 8b8c 503f
00000080: f4b8 1e3f b47f 2b3f 4dd9 ed3e 0d9d 953f
00000090: f01f 4540 ad5f b83f 0c5d b93e a9fa 283f
000000a0: 6527 3340 54b3 9d3f 3c6a 623e c2b8 c03e
000000b0: c122 eb3e 6f9b 0f3f 4072 e33f 994f 1d3f
000000c0: d169 fa3e 1608 0d3f 17a8 c93e f228 4640
000000d0: 3ae0 333f 4625 6d3e 1b95 763f 19d7 a73e
000000e0: 9bab 153f 51f2 773e 6dbd 1f40 a002 c83e
000000f0: 0e0c 583f d0be 9c3f 35d4 8c3f ad94 1a3f
0.68193823 0.4541825 0.41462594 0.38029563 0.23635016 1.2325443 0.77857465 0.5578061
1.0924492 2.1271553 1.3784728 1.9740721 0.3824763 0.3749088 1.0518711 0.82419926
0.3973794 0.5447313 0.47810644 1.3093064 0.31864426 1.6580018 0.6824033 0.9290833
1.4653217 0.55445236 0.5715289 1.587951 0.65850276 0.5336213 1.3198082 0.8146445
0.62000966 0.66991735 0.4645485 1.1688553 3.0800743 1.4404198 0.36203802 0.6600748
2.7992795 1.2320352 0.22110838 0.3764096 0.45924953 0.5609655 1.7769241 0.6144958
0.48908857 0.55090463 0.39386055 3.096249 0.7026402 0.2315875 0.96321267 0.32781294
0.58464974 0.2421353 2.4959366 0.39064503 0.84393394 1.2245731 1.100226 0.6038311

weight f4 [64, 64, 3, 3]
00000000: f765 8b3d 15db c6bd 3b53 803d 698e 8fbd
00000010: 06fa aabd 3039 cf3d dd1f b1bd 223e f53c
00000020: 2939 74bd 564f 933d 85c9 803c 9913 11bd
00000030: d4d2 6bbd 56e2 763d 32d5 04bc 6188 a53c
00000040: 13b9 c53d 3f2c cdbd fae1 e03c bd8c 263d
00000050: f0a1 5f3d 7db8 99bd 32e4 bcbc d5b4 b13d
00000060: 69ad 103c 7e33 043d 8e0b ef3c 31e3 cd3d
00000070: 0a7a 003d d078 4f3d 18e5 7e3d a731 9cbc
00000080: 735b 1bbc 07cf 143d 2404 89bd b2f1 973d
00000090: b186 01bd a119 853d 9fa3 9f3c 7b3c c83d
000000a0: a2fa adbd aa78 d1bc d0de a03d 58de 68bd
000000b0: 1fd9 8fbc 43e6 933d 44a8 10bd c6b8 af3d
000000c0: 31fc 9438 b35a 113d 147f 3bbd 5c11 bdbd
000000d0: 6d1e 603d 73ad 6bbd 162f 933d fe6e 1bbd
000000e0: d5f5 113d 64bf a5bc e11d bdbd 34e3 403d
000000f0: a788 913d f039 4bbc 06e8 babd 27a8 d03c
00000100: 449b 0c3d c5c3 883d 402c b4bc 27d3 97bd
00000110: 5f94 09bd 1fac a43d 637b a7bd 72b0 ac3c
00000120: df0e 4a3d be6e 4bbd cfc7 c1bd 67e6 873d
00000130: abf1 c9bd 4e96 1ebd 3044 6a3d 6833 ab3d
00000140: 1230 adbc bdd0 7c3d 53db 14bb 4f22 68bc
00000150: 8594 3039 4709 4d3d 079d be3d 2839 5fbd
00000160: 66e2 b03d cd0b 44bb 12ad 49bc 817e 0a3d
00000170: da88 8bbd 3ff6 ba3d 6f6c 5d3d 55e1 0c3d
00000180: 83ba 5ebc ab0b cb3d febc 323d 1b78 c03d
00000190: 0d91 81bb 8264 a13d f187 39bd 28e8 a7bb
000001a0: 1bbf c2bc 26a0 49bd 34fd d03d b93b 23bd
000001b0: 84b2 c63b 9e3a 3d3d fd8c adbd 2f84 b03d
000001c0: 1841 d13c 74b4 733d 72f2 ac3d be2e a03d
000001d0: d2d5 403d d2c2 95bd cc7d c7bd 2629 a03d
000001e0: cd25 823d 5c9e 25bd 228b 5cbd 9d3b 3dbc
000001f0: b223 f7bc 99db 3bbc b921 f9bc 045c b93d
00000200: 2b0d adbb 23f1 c43d c90c d13c 2334 8c3d
00000210: f32e 12bc ac9d 95bd 1812 0c3d 1d9a ae3d
00000220: 1c1c 6cbd b71e 9dbd 980d bfbd 4a27 9fbd
00000230: c13b bf3d c045 dfbc 6602 ad3c 6aa4 d4bc
00000240: 9668 7c3d 8196 04bd 438c ac3b 680c ab3d
00000250: 2398 04bd c183 ca3d e96d a6bd df8d 82bd
00000260: ef46 a2bd 287a 7abd 208b 113d 3bdb a43d
00000270: 1445 89bd fcac 753d bba0 cfbd 013b e0bc
00000280: 044f 803d 7ac0 84bd 2ba8 ccbd c6b7 1cbd
00000290: 911f be3c f5f0 0dbd 249a a43c cc9e f1bc
000002a0: 37aa 7f3c 0e1a 98bd c2f9 053c 40c6 21bd
000002b0: 8d4a 99bd 2810 b93d 03bc 44bd 46ae a83d
000002c0: becd 33bc d25b 03bc 207d 7cbd bd19 bb3d
000002d0: 565b b1ba f060 083c 4312 143c 0989 15bb
000002e0: 03f0 483d 78f1 96bc a772 8abd 663b 25bd
000002f0: 3601 b73d d130 b23d 55b2 83bd 2308 333d
00000300: 0070 4dbd 0907 ddbc e056 01bd 71ef a03d
00000310: f491 91bd 08fb cabd 8ae8 67bc 99c2 683c
00000320: 2332 c93d 5f10 0c3d 10e2 f8bc c6ce 9c3d
00000330: 140b 853d fa01 8e3c 9275 6bbd 2b86 183d
00000340: ba34 7c3d b715 3bbd 1c57 1b3c 4332 bcbd
00000350: b959 f23c 099d 5fbd 4d15 93bc 99f4 b9bd
00000360: cb0f 83bd bd42 283c 86e6 9e3d 1ae4 95bd
00000370: 36ec 16bc 4009 d0bd 6d8c 843c 536d cabd
00000380: e3b7 bdbd a59f 343d 445f 67bd 2585 c5bd
00000390: 8b43 15bd 6a19 ab3d 9a39 163b 625a b83d
000003a0: ab83 cd3d be65 a9bc c080 c53d ba7c 2b3d
000003b0: 9a64 823d 1042 c7bd 8ca7 f23c 6ffb 7a3d
000003c0: fddd d0bc f60f 7bbd eb08 b63d a347 d5bc
000003d0: 7d93 b83d f28b a9bd 2b7e 9fbd bf71 773c
000003e0: b7a5 b13d c760 173d 62cb 643a d3f2 10bd
000003f0: 8714 69bd 1bfb 74bb 2e15 bc3d 0c4f dbbc
0.068065576 -0.09709755 0.06265875 -0.070095845 -0.083484694 0.101183295 -0.086486556 0.029936854
-0.059624825 0.071928665 0.015721092 -0.03541908 -0.05757411 0.060274445 -0.00810747 0.020206632
0.09654441 -0.10018205 0.027451504 0.040661562 0.054597795 -0.075058915 -0.02305803 0.08677069
0.008830407 0.03227567 0.029180314 0.10053099 0.031366386 0.050652325 0.0622302 -0.019066645
-0.009482252 0.03633025 -0.06690243 0.074191466 -0.031622592 0.06499029 0.0194872 0.09777161
-0.0849507 -0.025570232 0.07854998 -0.05685267 -0.017559586 0.07221653 -0.03531672 0.085801646
7.104164e-05 0.03548689 -0.045775488 -0.09231827 0.054716516 -0.05753846 0.07186715 -0.037947647
0.035634834 -0.020232864 -0.092342146 0.047091678 0.071061425 -0.01240395 -0.09126286 0.025470806
0.03432776 0.06677965 -0.021993756 -0.07413321 -0.033588763 0.08040642 -0.08177831 0.02108023
0.04933059 -0.04966616 -0.094619386 0.06635743 -0.09860548 -0.03871756 0.057193935 0.08359414
-0.021141086 0.061722506 -0.0022713735 -0.014168336 0.00016839996 0.050057676 0.09307294 -0.054497868
0.08636932 -0.002991426 -0.01230933 0.03381205 -0.06813212 0.09128999 0.05405849 0.03439458
-0.013594273 0.09914335 0.04363727 0.09397908 -0.003954059 0.078804985 -0.04529566 -0.0051241107
-0.023772767 -0.049224995 0.10204545 -0.039851878 0.006063761 0.04619848 -0.08474157 0.08618962
0.025543734 0.059498265 0.0844468 0.07821415 0.047078915 -0.0731255 -0.09740791 0.078203484
0.06354866 -0.040434226 -0.053843625 -0.011549857 -0.030168388 -0.01146593 -0.030411588 0.09050754
-0.0052811108 0.09616306 0.025518792 0.06845882 -0.008922326 -0.07305464 0.034196943 0.085254885
-0.057643995 -0.07671874 -0.09328765 -0.07771166 0.09337569 -0.02725494 0.021119308 -0.025957305
0.06162318 -0.032370094 0.005265744 0.08351976 -0.03237165 0.09888411 -0.081264324 -0.06374716
-0.07923686 -0.061151654 0.03553307 0.080496274 -0.06702629 0.059979424 -0.10138079 -0.027371885
0.06265071 -0.064820245 -0.09993013 -0.038261198 0.023208411 -0.034653623 0.020093031 -0.029494666
0.015604547 -0.074268445 0.008177223 -0.039495707 -0.074849226 0.09036285 -0.048030864 0.08236365
-0.010974346 -0.008017497 -0.061642766 0.091357686 -0.0013531249 0.008323893 0.009037557 -0.0022817275
0.049057018 -0.018425688 -0.067601494 -0.04033985 0.08935778 0.08700717 -0.064304985 0.04370893
-0.05015564 -0.026980894 -0.03157699 0.0785817 -0.071079165 -0.09911162 -0.014154563 0.014206552
0.09824016 0.0341953 -0.030381233 0.076566264 0.064962536 0.017334927 -0.05748517 0.037237328
0.06157372 -0.045675006 0.009481218 -0.09189274 0.029583799 -0.05459312 -0.017954493 -0.090798564
-0.06399497 0.010269818 0.077588126 -0.073188975 -0.0092115905 -0.10158014 0.016180241 -0.09884133
-0.09263589 0.04409756 -0.056487337 -0.09644536 -0.036441367 0.08354457 0.0022922517 0.09001614
0.10034879 -0.020678397 0.09643698 0.041866995 0.063668445 -0.09729397 0.029620908 0.061274942
-0.025496477 -0.06129452 0.0888842 -0.026035136 0.09012506 -0.082786456 -0.077877365 0.015102803
0.08674186 0.03695753 0.0008727816 -0.035387825 -0.056904342 -0.0037381116 0.09183727 -0.02677109

bias f4 [64]
00000000: 0000 0000 0000 0000 0000 0000 0000 0000
00000010: 0000 0000 0000 0000 0000 0000 0000 0000
00000020: 0000 0000 0000 0000 0000 0000 0000 0000
00000030: 0000 0000 0000 0000 0000 0000 0000 0000
00000040: 0000 0000 0000 0000 0000 0000 0000 0000
00000050: 0000 0000 0000 0000 0000 0000 0000 0000
00000060: 0000 0000 0000 0000 0000 0000 0000 0000
00000070: 0000 0000 0000 0000 0000 0000 0000 0000
00000080: 0000 0000 0000 0000 0000 0000 0000 0000
00000090: 0000 0000 0000 0000 0000 0000 0000 0000
000000a0: 0000 0000 0000 0000 0000 0000 0000 0000
000000b0: 0000 0000 0000 0000 0000 0000 0000 0000
000000c0: 0000 0000 0000 0000 0000 0000 0000 0000
000000d0: 0000 0000 0000 0000 0000 0000 0000 0000
000000e0: 0000 0000 0000 0000 0000 0000 0000 0000
000000f0: 0000 0000 0000 0000 0000 0000 0000 0000
0.0 0.0 0.0 0.0 0.0 0.0 0.0 0.0
0.0 0.0 0.0 0.0 0.0 0.0 0.0 0.0
0.0 0.0 0.0 0.0 0.0 0.0 0.0 0.0
0.0 0.0 0.0 0.0 0.0 0.0 0.0 0.0
0.0 0.0 0.0 0.0 0.0 0.0 0.0 0.0
0.0 0.0 0.0 0.0 0.0 0.0 0.0 0.0
0.0 0.0 0.0 0.0 0.0 0.0 0.0 0.0
0.0 0.0 0.0 0.0 0.0 0.0 0.0 0.0

weight f4 [64]
00000000: 0000 803f 0000 803f 0000 803f 0000 803f
00000010: 0000 803f 0000 803f 0000 803f 0000 803f
00000020: 0000 803f 0000 803f 0000 803f 0000 803f
00000030: 0000 803f 0000 803f 0000 803f 0000 803f
00000040: 0000 803f 0000 803f 0000 803f 0000 803f
00000050: 0000 803f 0000 803f 0000 803f 0000 803f
00000060: 0000 803f 0000 803f 0000 803f 0000 803f
00000070: 0000 803f 0000 803f 0000 803f 0000 803f
00000080: 0000 803f 0000 803f 0000 803f 0000 803f
00000090: 0000 803f 0000 803f 0000 803f 0000 803f
000000a0: 0000 803f 0000 803f 0000 803f 0000 803f
000000b0: 0000 803f 0000 803f 0000 803f 0000 803f
000000c0: 0000 803f 0000 803f 0000 803f 0000 803f
000000d0: 0000 803f 0000 803f 0000 803f 0000 803f
000000e0: 0000 803f 0000 803f 0000 803f 0000 803f
000000f0: 0000 803f 0000 803f 0000 803f 0000 803f
1.0 1.0 1.0 1.0 1.0 1.0 1.0 1.0
1.0 1.0 1.0 1.0 1.0 1.0 1.0 1.0
1.0 1.0 1.0 1.0 1.0 1.0 1.0 1.0
1.0 1.0 1.0 1.0 1.0 1.0 1.0 1.0
1.0 1.0 1.0 1.0 1.0 1.0 1.0 1.0
1.0 1.0 1.0 1.0 1.0 1.0 1.0 1.0
1.0 1.0 1.0 1.0 1.0 1.0 1.0 1.0
1.0 1.0 1.0 1.0 1.0 1.0 1.0 1.0

bias f4 [64]
00000000: 0000 0000 0000 0000 0000 0000 0000 0000
00000010: 0000 0000 0000 0000 0000 0000 0000 0000
00000020: 0000 0000 0000 0000 0000 0000 0000 0000
00000030: 0000 0000 0000 0000 0000 0000 0000 0000
00000040: 0000 0000 0000 0000 0000 0000 0000 0000
00000050: 0000 0000 0000 0000 0000 0000 0000 0000
00000060: 0000 0000 0000 0000 0000 0000 0000 0000
00000070: 0000 0000 0000 0000 0000 0000 0000 0000
00000080: 0000 0000 0000 0000 0000 0000 0000 0000
00000090: 0000 0000 0000 0000 0000 0000 0000 0000
000000a0: 0000 0000 0000 0000 0000 0000 0000 0000
000000b0: 0000 0000 0000 0000 0000 0000 0000 0000
000000c0: 0000 0000 0000 0000 0000 0000 0000 0000
000000d0: 0000 0000 0000 0000 0000 0000 0000 0000
000000e0: 0000 0000 0000 0000 0000 0000 0000 0000
000000f0: 0000 0000 0000 0000 0000 0000 0000 0000
0.0 0.0 0.0 0.0 0.0 0.0 0.0 0.0
0.0 0.0 0.0 0.0 0.0 0.0 0.0 0.0
0.0 0.0 0.0 0.0 0.0 0.0 0.0 0.0
0.0 0.0 0.0 0.0 0.0 0.0 0.0 0.0
0.0 0.0 0.0 0.0 0.0 0.0 0.0 0.0
0.0 0.0 0.0 0.0 0.0 0.0 0.0 0.0
0.0 0.0 0.0 0.0 0.0 0.0 0.0 0.0
0.0 0.0 0.0 0.0 0.0 0.0 0.0 0.0

running_mean f4 [64]
00000000: 724f 613e 2110 063d b29b a83e c35c 83bf
00000010: e35f 4d3f 78e1 673e a713 b3bf 1d85 19bf
00000020: 8e01 dbbe 607a 38bf ec63 c8be 7596 8fbe
00000030: ae58 873e a75e 9b3f 58dd 4c3f 7551 1f3f
00000040: 6b39 a9bd 5c5b 653f 84af 6ebf 3005 343e
00000050: bf6c f0bf 7a91 d83e 8461 62bf ae59 70bd
00000060: 0227 c13f 1ca6 80bf 1ff3 debf bd78 153f
00000070: 3471 f3bd 14ce 4f3e 3e97 523f 510a f53e
00000080: 338c 1cbf ca4c efbd e167 2bbf ce6d cc3c
00000090: f1ff 8f3e b0a8 903d 1788 1b3f 5937 8c3f
000000a0: 1eae 95be 8d1b e4bf dfb0 33bf 4f02 b7be
000000b0: 63f6 263f 723e 29bf cd56 5c3e a114 793e
000000c0: 57a7 c33e 7daa 0fbf 791a 953f 3285 f9bf
000000d0: 0c4d 2cbc 85f5 1b3e aac7 16be 0c46 203f
000000e0: f4f8 ac3f 9f1f c1be 745b b63e 58b6 353e
000000f0: 7a0b e2be bcdc 9dbe d2e0 493f 6ef6 cc3e
0.22002962 0.032730225 0.32931286 -1.0262684 0.80224437 0.22644603 -1.3990372 -0.5996874
-0.42774624 -0.7206173 -0.39138734 -0.28044477 0.26434845 1.2138261 0.80025244 0.6223367
-0.08262905 0.8959253 -0.93236566 0.17580104 -1.8783187 0.4229849 -0.8843005 -0.058679275
1.5090029 -1.0050693 -1.7417945 0.58387357 -0.11886826 0.20293456 0.8226203 0.47859433
-0.6115143 -0.11684568 -0.6695538 0.024954703 0.28124955 0.070634246 0.6075453 1.0954391
-0.29234403 -1.7820908 -0.7019176 -0.3574395 0.65219706 -0.6611091 0.21517487 0.24324276
0.38213608 -0.5611952 1.1648704 -1.9493773 -0.010516416 0.15230377 -0.14724603 0.62606883
1.3513474 -0.37719437 0.35616648 0.1774534 -0.4414938 -0.3083247 0.78858674 0.4003176

running_var f4 [64]
00000000: 0392 3d3f cb23 813f 0b23 7b3f a866 403f
00000010: 147e 523f ea83 a23f 479f 563f 722b 423f
00000020: 1fa2 263f dfb0 213f c037 753f 09be 9f3f
00000030: 98bb 8c3f 0246 9a3f bafb 843f 71b8 833f
00000040: a08e 433f a164 ab3f 69ca b53f 17e6 203f
00000050: 3011 cf3f 3c20 db3f 1593 ff3f 59fb 3c3f
00000060: 1a0a 963f 7786 913f 9d3a 0040 d02c 4d3f
00000070: 3870 3f3f 1345 b33f 085b 0540 5e87 833f
00000080: be9a 603f 1b6d 703f c5fe 433f c053 123f
00000090: 3db7 633f 80c6 293f 0df2 7e3f 5196 513f
000000a0: 1378 713f 27b4 dd3f 5033 8b3f 4e19 8b3f
000000b0: a779 7f3f 788c 9b3f d7bc 073f 966c 5b3f
000000c0: 5311 913f 4a70 d93f 72cc 9e3f 8357 d63f
000000d0: 1f2e b03f 343a 3a3f d5d3 5b3f b4de 453f
000000e0: b557 8d3f 2ad9 703f 65d0 ec3f 3439 093f
000000f0: 6725 623f ea04 853f 7e8c 7c3f b963 783f
0.7405092 1.0089048 0.98100346 0.7515664 0.8222363 1.2696507 0.8383679 0.7584754
0.6509113 0.6316051 0.9578819 1.2479869 1.0994749 1.2052615 1.0389321 1.0290662
0.76389503 1.3390085 1.4202396 0.6285109 1.617712 1.7119212 1.9966761 0.73821026
1.1721833 1.136916 2.0035775 0.80146503 0.7478061 1.4005455 2.083681 1.0275686
0.8773612 0.9391648 0.7656062 0.5715904 0.88951474 0.6631851 0.9958809 0.8186999
0.94323844 1.7320603 1.0875034 1.0867097 0.99795 1.2152243 0.5302252 0.85712564
1.1333412 1.6987393 1.2406142 1.6745456 1.3764075 0.7274506 0.85870105 0.77292943
1.1042391 0.94081366 1.8501097 0.5360291 0.8833832 1.0392125 0.98651874 0.97027165

weight f4 [64, 64, 3, 3]
00000000: 82af 3b3c 1e1c 90bd 0554 a1bd 1b9a b7bd
00000010: 3bae fc3b 773a 983c 213f 683d 9f24 d0bc
00000020: c848 723d ec63 aa3d be66 b93b 84e8 83bc
00000030: 2f10 4b3d 3936 ad3c 5c9b 2bbd 7e0b a13c
00000040: 465c 453d cac9 873d c3df 713d c1ff a23d
00000050: 13e7 a2bb 71bc 183c 39d2 483d 72cc 943d
00000060: ba78 843c 6df1 5c3d 9a41 ffbc 3b72 8ebd
00000070: 27e0 523d 3676 653d c2eb afbd 6be2 95bc
00000080: 41df 023c 9015 3bbd daa7 25bd 7b90 8e3d
00000090: 72b9 d33c 95ea aebd b685 6fbd 42e0 233d
000000a0: a685 8e3d b345 08bd ae54 19bd 76ec eabc
000000b0: 55b4 81bd 26f5 c63d ec19 72bd d1b4 bb3d
000000c0: 8740 d23c 5291 bfbd fa23 a43b 77ef 5abd
000000d0: 4f08 cebd d595 abbc 4915 a33c 286c a63c
000000e0: dca2 c63d fdc6 f03c 402e d5bc 749b f2bc
000000f0: 9dab f8bc 5448 033c 1b77 9bbb ab30 cebd
00000100: 2878 553d 52c5 aa3d 9ca6 a9bd bce5 27bd
00000110: a54c 81bd 9715 f5bc 704f 4fbd 4ee7 903c
00000120: 7298 8dbc a073 28bd bfad f33c 73b3 09bd
00000130: b795 96bc 495b 963d 65b0 0bbd 73fc 0ebd
00000140: ba89 5d3d 37aa 52bd 3934 70bd 75f5 1c3d
00000150: 0952 8c3d 81eb 813c cc9d e13c e5a0 e63c
00000160: ade8 723d d6c8 7abd 7f3e c43d b78e 19bd
00000170: 502b abbd 5ed4 4dbd 8f16 9abd a4f0 59bd
00000180: 6660 99bd d22e 763d 9a97 523d e1bc cbbd
00000190: 93ba eb3c b02a 8f3d 03ed 4abd dc2e 363d
000001a0: a26d e7bc 96a2 d13b ca13 96bd c22c 07bc
000001b0: 8278 c33d ce27 d0bd e890 bcbd a63b 62bd
000001c0: d96b 823c 1942 4dbd fc45 4abd f7a8 f63c
000001d0: 7eb3 313d ee88 203c 4e0f 843d ffbc 3a3d
000001e0: c811 383d 1423 f93c 7417 9ebd fd2a 4bbc
000001f0: 0a08 e43c 3448 8fbd 233d b6bd 74ed 553d
00000200: 1a0c c83d 321d cebd 8d45 3d3d 6639 c3bd
00000210: db88 c7bd 6bf0 45bd 0eef 293d 0ac2 96bd
00000220: 75c7 ad3c cddc 1a3d 1a93 35bc a986 1fbd
00000230: 8fb7 a4bd b802 713d 76a2 3e3c 1521 5f3b
00000240: 8f08 97bc 2c6f c9bd 6703 8fbb 4562 cfbc
00000250: 5eda 74bd 7564 a3bc 728a c03d d8e2 60bd
00000260: 1cfa 2f3d 1c9f b8bb d99e 1b3d e08b b5bd
00000270: 57c4 6abd 3983 af3d f111 a1bd 65d8 ac3d
00000280: d236 96bc 26e0 aa3d b34d 4c3d 12e5 a73d
00000290: ea69 c03b 2ee8 a9bc 597e 42bd 7f83 753d
000002a0: 4bdf 8f3c 920f a4bd 1183 a6bd 5498 cf3d
000002b0: fed2 cabd 49d1 a9bd cde4 bebc 59cf 7c3c
000002c0: d984 cfbd 6174 36bd f0ef 0dbc 8549 ce3d
000002d0: 43d9 ccbd f0f3 913d 6a04 a03d fe42 e8bc
000002e0: 1a24 1cbc 6f58 17bd 3eaf cc3d 02a9 47bd
000002f0: 76b2 d93c 8255 84bd 9065 d7bc 59f3 8bbd
00000300: 2c50 bc3d da55 b3bd 0811 89bd b401 59bd
00000310: daf0 ce3d 2877 99bd e8e4 4fbd 901c 85bd
00000320: 7f32 d2bb bf97 cebd 1e00 48bd 736e cbbc
00000330: d98d 193d 27ba 6cbd 3aae a239 9758 c4bd
00000340: d08e 753d 9e99 523d e5f6 d83b cca6 753d
00000350: 8709 373d 285e 283d 893f 313d 77a6 b4bd
00000360: a866 623d 1066 c8bc 4262 9c3d 2fb6 9a3d
00000370: 6c0b a13d b273 8fbd 1183 adbd 6a5e a63d
00000380: 20ee ba3c 5c16 823d 4b0f 83bd 0bc7 1dbd
00000390: 7997 90bd 7370 ba3d 9752 943c f173 45bd
000003a0: 15b0 173d 3255 25bd 70d3 ac3d eb27 123d
000003b0: 076e 7e3c 8a18 c0bd 7ef1 b43d 9777 9e3d
000003c0: 2837 8c3d fd60 07bd b853 16bd f0b3 babd
000003d0: 68fb 8d3d 5b6c c7bd 6f2d 7a3d 1a67 a73c
000003e0: 576f 3a3d e65d 843d ecff cd3d 6618 c53d
000003f0: 0c5a 933d 98ff 87bd fe2b b5bd 848b b13d
0.011455419 -0.07036613 -0.078773536 -0.0896494 0.0077111996 0.018582566 0.05670083 -0.025408087
0.05915144 0.0831984 0.005658 -0.016102083 0.04957598 0.02114402 -0.04189621 0.0196588
0.048183702 0.06630285 0.059051286 0.079589374 -0.004971394 0.009322272 0.04902861 0.07265557
0.016170848 0.05394118 -0.031159211 -0.069553815 0.0514833 0.056020938 -0.08589889 -0.018296441
0.007987798 -0.04567486 -0.04044328 0.06961151 0.025845263 -0.08540837 -0.058477126 0.04000879
0.06959085 -0.033269595 -0.037434272 -0.028677206 -0.06333224 0.09714727 -0.059106752 0.09165347
0.025665535 -0.093538895 0.0050091716 -0.053451028 -0.100601785 -0.020945469 0.01990761 0.020315245
0.09699032 0.02939176 -0.02602303 -0.029615141 -0.03035527 0.00801285 -0.004744423 -0.100678764
0.052116543 0.08338417 -0.08283731 -0.040990576 -0.06313447 -0.029917521 -0.050612867 0.01768842
-0.017284606 -0.041125894 0.029745935 -0.0336184 -0.018381936 0.0734163 -0.03410377 -0.034908723
0.054086424 -0.05143186 -0.058643553 0.038320024 0.068515845 0.015859367 0.027541064 0.028152892
0.05930393 -0.06122669 0.09582233 -0.03748962 -0.083578706 -0.050251357 -0.07523834 -0.05320801
-0.0748909 0.060103245 0.05141411 -0.09948135 0.028775489 0.06990564 -0.04954244 0.044478282
-0.02825052 0.0063975556 -0.07327993 -0.008250417 0.095444694 -0.10163842 -0.09207326 -0.055232666
0.015920566 -0.050111864 -0.04938315 0.030109866 0.043384068 0.009798272 0.06448232 0.045590397
0.044938833 0.030412234 -0.07719317 -0.012400386 0.027835865 -0.069961935 -0.0889838 0.052228406
0.09767933 -0.10064162 0.046208907 -0.09532432 -0.097429 -0.048324984 0.041487746 -0.07361229
0.021213273 0.03780823 -0.011082435 -0.03894678 -0.080428235 0.058840483 0.011635413 0.0034046818
-0.018436698 -0.098356575 -0.0043644193 -0.025315413 -0.059778564 -0.019945363 0.09401406 -0.054903835
0.042963132 -0.0056342017 0.037993286 -0.0886457 -0.05731615 0.085699506 -0.0786475 0.084397115
-0.018336687 0.08343534 0.049878787 0.081979886 0.005872001 -0.020740595 -0.047483776 0.059939858
0.01756253 -0.08010782 -0.08130468 0.10136476 -0.09903525 -0.08291871 -0.02330246 0.015430295
-0.101327606 -0.04454458 -0.008663163 0.100726165 -0.10002377 0.071266055 0.07813342 -0.028352257
-0.009530092 -0.03694957 0.09994362 -0.048745163 0.026574355 -0.06461622 -0.026293546 -0.06833524
0.09194979 -0.08756609 -0.066927016 -0.05298014 0.101045325 -0.074934304 -0.05075541 -0.064995885
-0.006414711 -0.10087537 -0.048828237 -0.02483294 0.037488792 -0.057794716 0.00031028857 -0.0958721
0.05995065 0.051416032 0.006621229 0.059973523 0.04468682 0.04110542 0.043273482 -0.08820813
0.055273682 -0.02446273 0.07635929 0.0755428 0.07863507 -0.07004489 -0.084722646 0.08123477
0.022818625 0.06351921 -0.06399401 -0.0385199 -0.07060141 0.09103479 0.018105788 -0.048206273
0.03703316 -0.04036445 0.08438766 0.0356826 0.015529162 -0.093796805 0.088351235 0.07737654
0.06846458 -0.03305148 -0.036700934 -0.091163516 0.069327176 -0.09737464 0.061078485 0.020434905
0.04551634 0.06463222 0.10058579 0.09623794 0.071949095 -0.066405475 -0.088462815 0.086691886

bias f4 [64]
00000000: 0000 0000 0000 0000 0000 0000 0000 0000
00000010: 0000 0000 0000 0000 0000 0000 0000 0000
00000020: 0000 0000 0000 0000 0000 0000 0000 0000
00000030: 0000 0000 0000 0000 0000 0000 0000 0000
00000040: 0000 0000 0000 0000 0000 0000 0000 0000
00000050: 0000 0000 0000 0000 0000 0000 0000 0000
00000060: 0000 0000 0000 0000 0000 0000 0000 0000
00000070: 0000 0000 0000 0000 0000 0000 0000 0000
00000080: 0000 0000 0000 0000 0000 0000 0000 0000
00000090: 0000 0000 0000 0000 0000 0000 0000 0000
000000a0: 0000 0000 0000 0000 0000 0000 0000 0000
000000b0: 0000 0000 0000 0000 0000 0000 0000 0000
000000c0: 0000 0000 0000 0000 0000 0000 0000 0000
000000d0: 0000 0000 0000 0000 0000 0000 0000 0000
000000e0: 0000 0000 0000 0000 0000 0000 0000 0000
000000f0: 0000 0000 0000 0000 0000 0000 0000 0000
0.0 0.0 0.0 0.0 0.0 0.0 0.0 0.0
0.0 0.0 0.0 0.0 0.0 0.0 0.0 0.0
0.0 0.0 0.0 0.0 0.0 0.0 0.0 0.0
0.0 0.0 0.0 0.0 0.0 0.0 0.0 0.0
0.0 0.0 0.0 0.0 0.0 0.0 0.0 0.0
0.0 0.0 0.0 0.0 0.0 0.0 0.0 0.0
0.0 0.0 0.0 0.0 0.0 0.0 0.0 0.0
0.0 0.0 0.0 0.0 0.0 0.0 0.0 0.0

weight f4 [64]
00000000: 0000 803f 0000 803f 0000 803f 0000 803f
00000010: 0000 803f 0000 803f 0000 803f 0000 803f
00000020: 0000 803f 0000 803f 0000 803f 0000 803f
00000030: 0000 803f 0000 803f 0000 803f 0000 803f
00000040: 0000 803f 0000 803f 0000 803f 0000 803f
00000050: 0000 803f 0000 803f 0000 803f 0000 803f
00000060: 0000 803f 0000 803f 0000 803f 0000 803f
00000070: 0000 803f 0000 803f 0000 803f 0000 803f
00000080: 0000 803f 0000 803f 0000 803f 0000 803f
00000090: 0000 803f 0000 803f 0000 803f 0000 803f
000000a0: 0000 803f 0000 803f 0000 803f 0000 803f
000000b0: 0000 803f 0000 803f 0000 803f 0000 803f
000000c0: 0000 803f 0000 803f 0000 803f 0000 803f
000000d0: 0000 803f 0000 803f 0000 803f 0000 803f
000000e0: 0000 803f 0000 803f 0000 803f 0000 803f
000000f0: 0000 803f 0000 803f 0000 803f 0000 803f
1.0 1.0 1.0 1.0 1.0 1.0 1.0 1.0
1.0 1.0 1.0 1.0 1.0 1.0 1.0 1.0
1.0 1.0 1.0 1.0 1.0 1.0 1.0 1.0
1.0 1.0 1.0 1.0 1.0 1.0 1.0 1.0
1.0 1.0 1.0 1.0 1.0 1.0 1.0 1.0
1.0 1.0 1.0 1.0 1.0 1.0 1.0 1.0
1.0 1.0 1.0 1.0 1.0 1.0 1.0 1.0
1.0 1.0 1.0 1.0 1.0 1.0 1.0 1.0

bias f4 [64]
00000000: 0000 0000 0000 0000 0000 0000 0000 0000
00000010: 0000 0000 0000 0000 0000 0000 0000 0000
00000020: 0000 0000 0000 0000 0000 0000 0000 0000
00000030: 0000 0000 0000 0000 0000 0000 0000 0000
00000040: 0000 0000 0000 0000 0000 0000 0000 0000
00000050: 0000 0000 0000 0000 0000 0000 0000 0000
00000060: 0000 0000 0000 0000 0000 0000 0000 0000
00000070: 0000 0000 0000 0000 0000 0000 0000 0000
00000080: 0000 0000 0000 0000 0000 0000 0000 0000
00000090: 0000 0000 0000 0000 0000 0000 0000 0000
000000a0: 0000 0000 0000 0000 0000 0000 0000 0000
000000b0: 0000 0000 0000 0000 0000 0000 0000 0000
000000c0: 0000 0000 0000 0000 0000 0000 0000 0000
000000d0: 0000 0000 0000 0000 0000 0000 0000 0000
000000e0: 0000 0000 0000 0000 0000 0000 0000 0000
000000f0: 0000 0000 0000 0000 0000 0000 0000 0000
0.0 0.0 0.0 0.0 0.0 0.0 0.0 0.0
0.0 0.0 0.0 0.0 0.0 0.0 0.0 0.0
0.0 0.0 0.0 0.0 0.0 0.0 0.0 0.0
0.0 0.0 0.0 0.0 0.0 0.0 0.0 0.0
0.0 0.0 0.0 0.0 0.0 0.0 0.0 0.0
0.0 0.0 0.0 0.0 0.0 0.0 0.0 0.0
0.0 0.0 0.0 0.0 0.0 0.0 0.0 0.0
0.0 0.0 0.0 0.0 0.0 0.0 0.0 0.0

running_mean f4 [64]
00000000: e042 e4be 198c 0bbf 09b1 b4be 89ec 64be
00000010: 28e5 0a3f e309 3ebe abb5 8b3e 602e 2d3e
00000020: c6ae 09bf 7c1c 33bd 3a21 933e 361e 303f
00000030: 815b c13d ab58 5e3f 6c7b 273f 369d b43e
00000040: 59c1 553e 87ac a83e e80f 5f3e 06fa 72be
00000050: d16b 593f ec8e b83c a359 78bf 0d5a 0ebd
00000060: 189d 993e d7c1 103f 50a0 e53d e564 98be
00000070: 2a34 173f 48f2 9ebe 9158 083f 46c6 f63d
00000080: 9be3 bcbe 7df4 013e 484b 1c3f 677e 6fbe
00000090: 58da 1abf e835 703d 31c4 b23d b05f 8e3c
000000a0: 5152 333f 8637 313e 898b 16bf 352d 9e3e
000000b0: 5d51 593f f182 83bd b82c 513f d949 5f3f
000000c0: 0900 04bd 5757 b9bd f39e bfbe 8419 e7be
000000d0: 2bfd 2a3f c756 2a3f d200 393f 0c9f c9be
000000e0: 081d 2b3f 1d33 403f 8f75 b6be 9acd 7b3f
000000f0: 17aa e3be c5bf e7be 777c 5b3f 9ef8 dc3e
-0.44582272 -0.5451065 -0.35291317 -0.22355856 0.54255915 -0.18558459 0.2728704 0.16912222
-0.5378231 -0.043728337 0.28736287 0.687961 0.09441281 0.86854047 0.654227 0.35276192
0.20874538 0.32944128 0.21783412 -0.23728189 0.8493014 0.022529088 -0.97011775 -0.034753848
0.30002666 0.56545776 0.11212218 -0.29764476 0.5906397 -0.3104422 0.5326014 0.120495364
-0.368924 0.12690921 0.6105237 -0.23388062 -0.60489416 0.05864516 0.08728827 0.017379612
0.7004748 0.17306337 -0.58806664 0.30893865 0.84889776 -0.064214595 0.8170886 0.8722206
-0.032226596 -0.09049862 -0.37425956 -0.45136654 0.66792554 0.6653866 0.72266877 -0.39379156
0.66841173 0.7507799 -0.35636565 0.983606 -0.44465706 -0.45263496 0.85736793 0.4315843

running_var f4 [64]
00000000: f717 283f 5d9a 6a3f 6703 ff3e 6bcf 8b3f
00000010: 42e6 893f 2aeb 2f3f e66d 4a3f 6df5 073f
00000020: 7d34 283f 79f5 393f 90dd 313f 1eea 1c3f
00000030: 1c8c 303f 6b0a 093f 9e17 2d3f 9387 2e3f
00000040: 50a6 153f fe04 823f 20ee 253f a6e3 603f
00000050: 0f0e 253f 7454 dd3e 48e7 2b3f 8278 9d3f
00000060: 8820 8e3f 4001 723f f9e1 113f 6df1 4c3f
00000070: a291 5e3f b8f9 643f a0d0 2e3f 48e6 0f3f
00000080: 81f1 403f 5c03 2c3f a814 1d3f 0a83 463f
00000090: e4dc 2d3f 82c0 403f 5e8f f23e cefe 313f
000000a0: ff9b 433f e3bb 193f dcec f03e a4b3 563f
000000b0: 2b71 9b3f 4672 503f 8c9f 713f 09ad 6c3f
000000c0: 14e0 643f ce9e 493f 2559 3e3f e51c 2b3f
000000d0: 6ebf 213f 968b 3d3f c39d 393f d991 453f
000000e0: 7075 1d3f fbcb 2f3f 0387 223f 4ebe 513f
000000f0: 9cc9 803f 0bcc 433f 6728 353f d3ba 663f
0.6566157 0.9164179 0.49807283 1.0922674 1.0773394 0.68718207 0.7907394 0.53108865
0.6570509 0.72640187 0.694787 0.61294734 0.6896379 0.5353152 0.6761416 0.6817562
0.584569 1.0157773 0.64816475 0.87847364 0.64474577 0.43228495 0.6714978 1.2302401
1.1103678 0.9453316 0.5698543 0.80055887 0.8694097 0.8944354 0.68287086 0.56210756
0.75368506 0.67192626 0.61359644 0.775437 0.6791518 0.75293744 0.47375005 0.69529426
0.76409906 0.6005232 0.4705571 0.8386786 1.2143911 0.8142437 0.94384074 0.9245153
0.89404416 0.7875794 0.74354774 0.66840965 0.63182724 0.74041116 0.7250635 0.7717567
0.6150732 0.68670624 0.6348726 0.81931007 1.0061526 0.7648322 0.70764774 0.9012882
